蔡忠慧/week02/model.pt (torch, 1183 bytes, 2 tensors)

Linear.weight f4 [5, 5]
0	0x4096bd3b	4.7105994
1	0xc011a3e5	-2.2756283
2	0xbff329b2	-1.8997099
3	0xc01534ca	-2.331347
4	0xbff96137	-1.9482793
5	0xbffe0a4b	-1.9846891
6	0x4099c33c	4.8050823
7	0xbfe8ffe0	-1.8203087
8	0xc00ff003	-2.2490242
9	0xbff64797	-1.9240597
10	0xc008f317	-2.139837
11	0xc009e962	-2.1548696
12	0x40a395e6	5.112048
13	0xc01925b9	-2.3929274
14	0xbfeaa862	-1.8332636
15	0xc0105707	-2.2553117
16	0xc00b6371	-2.1779444
17	0xbff644ee	-1.9239786
18	0x4097cd5f	4.7438197
19	0xc0011f8d	-2.0175507
20	0xbffe8a3c	-1.9885936
21	0xc00055ad	-2.0052292
22	0xbff5bf14	-1.9198937
23	0xc0168dcc	-2.3524046
24	0x409bbe65	4.8669915

Linear.bias f4 [5]
0	0x3e60c300	0.21949387
1	0xbd5b0101	-0.053467754
2	0x3cf1d35a	0.029519726
3	0x3e1bd396	0.15217432
4	0x3d0ca896	0.034340464
