郑昕/week02/multiclass_model.bin (torch, 1678 bytes, 2 tensors)

linear.weight f4 [3, 5]
00000000: fde4 8d40 0d66 0341 32a0 9ec0 01a6 a0c0
00000010: 24a1 bfc0 78b2 04c1 b360 acc0 37e8 f840
00000020: cadb f240 d35a 9cc0 bc93 8b40 a338 d0c0
00000030: dcb5 a1c0 e22b a3c0 2d12 0b41
4.4342027 8.212415 -4.957055 -5.020264 -5.9884205 -8.293571 -5.386804 7.7783465
7.5893297 -4.886087 4.361784 -6.5069137 -5.0534496 -5.099107 8.691937

linear.bias f4 [3]
00000000: 6203 b03d 878a a93e 9364 d6bd
0.08594395 0.331135 -0.10468402
